trained_model.pth (torch, 2579 bytes, 4 tensors)

linear1.weight f4 [10, 18]
00000000: 58e8 1abe 7a94 85bd 0af8 12bd cfc5 653e
00000010: 256d 3bbe 5a31 90bd 6fe7 52be 59cc 303e
00000020: 0dea 26bd 91af 6dbe a314 773e ae94 583e
00000030: e791 ed3d 38d4 8c3e 42b0 163e 0738 233e
00000040: 9eb4 c1bd 5d71 933d fef6 3f3e cf8f 87be
00000050: 35bd 85bd 678b 013c 92bd 213e b9e1 943d
00000060: 8068 bbbc d828 83bd cddf c53d 2899 463e
00000070: 4dfb 463d b9fa 503d 92d4 f9bd 60da 90bd
00000080: 56b4 b9bd 118d b9bd 3b25 23be 9360 0f3e
00000090: 45f2 06be 688b e33c 62cc 08be cdb3 673e
000000a0: 608c 833c 31c0 0ebe 3606 893d 4d86 27be
000000b0: 6520 83bc 1bf7 b23d 273d 05bc a0d2 043e
000000c0: 76f5 843c bf24 10be b208 063d 07ac 023e
000000d0: 7f4c 2abe 8ba6 da3d b59d 573d e476 1a3d
000000e0: 597b ab3d 61a7 363d cbb2 38bd 6470 7b3e
000000f0: e27e 52be 5dbd d2bd f914 34be 0e86 3c3d
00000100: 1ebc 58be 344f 0e3e add7 00be b7f3 0f3d
00000110: 9ec6 c1bd 17d4 153d 0242 2cbe 22e2 1b3d
00000120: 0c1c 80be 6237 d83b a848 623e 6fc5 2c3e
00000130: 1916 323e a02f 263d bb28 81bc de2a ea3d
00000140: 62e0 5fbe c595 69be b906 d1bd cd63 ec3d
00000150: 1f19 1b3e 09c6 d43b 873c 2abe cd22 b4bd
00000160: a5c9 403e 00ba 4cbe ac2d 833d 79fc 39bc
00000170: 6898 e9bd 6239 d23d dd5b 893b 6ea9 bf3d
00000180: 8f1f 903d 4505 25be 6b0d 333e 9f7e 42be
00000190: aa04 39be 32f3 2dbe 630a 8bbe 3ad0 34bd
000001a0: a1f5 65be eebe 3fbe c63d 8db9 1281 813c
000001b0: cea3 3bbd e32b 693e ab4c 4b3e ff00 85be
000001c0: fe13 253e 905b b9bd 7c72 303d bea7 823d
000001d0: a0ef 95bd f0b1 9e3d 83c2 9f3d 4813 cc3d
000001e0: e85a 473e 865b 363e eaa1 cebd fb52 323e
000001f0: ae8c 93bc 83d1 2fbd 1634 b6bd 659a a23e
00000200: 47f4 793d 33a2 4abd ffda c639 0145 0c3e
00000210: 514a 0abe 7c85 e4bd 7010 ac3d 59cf 0abe
00000220: 9d2f d53d 7787 0b3e 909a 9b3e 0e2f fabc
00000230: 839a 1f3c aa9a 0e3e 10b9 3e3e eb79 a1bd
00000240: 768d 0fbd d42b a93d 1a25 4fbe 0af6 8bbe
00000250: f19a 113d 198c c63c fc5c 4d3e 5a72 74bd
00000260: b4f3 ca3d 81ad 43be 37a4 223e 0236 03bd
00000270: 7a27 15be bdd9 3d3e 84c1 89bd 49b3 e33d
00000280: 4bad cbbb 85d4 b5bb 5ef8 583e e62d f5bd
00000290: bd04 2a3d 93f2 413e 1f35 2b3d dc3c c0bd
000002a0: 3d87 44be d1bb b0bd 1e90 2ebe 1672 07be
000002b0: a759 8fbd 8c03 093e e661 99bd 1d04 2bbe
000002c0: 3884 28be 7b98 c13a 5e17 42bd 1a3e 8e3d
-0.15127695 -0.0652246 -0.03588108 0.22438739 -0.18303354 -0.07040663 -0.20596097 0.17265452
-0.040750552 -0.23211505 0.24128966 0.21150467 0.11600094 0.2750566 0.14715675 0.15939341
-0.09458278 0.07199357 0.18746564 -0.26476905 -0.06530229 0.007906771 0.15794972 0.07269616
-0.022876978 -0.06404275 0.09661827 0.19394362 0.048579503 0.051020358 -0.12198748 -0.07072902
-0.090675995 -0.090601094 -0.15932171 0.14001684 -0.13178356 0.027776435 -0.13359216 0.22627182
0.016058147 -0.13940503 0.06690638 -0.16359825 -0.016006658 0.08738538 -0.008132256 0.12970972
0.016230326 -0.14076518 0.032723136 0.12760936 -0.16630743 0.10676297 0.052640636 0.03771104
0.08373136 0.04459322 -0.045092385 0.24554592 -0.20556214 -0.102900244 -0.17586125 0.046026282
-0.21165511 0.13897401 -0.12582274 0.035144534 -0.09461711 0.036579218 -0.16822055 0.038057454
-0.25021398 0.006598399 0.22098029 0.1687219 0.17391242 0.040572762 -0.015766492 0.114339575
-0.21862939 -0.22811039 -0.1020636 0.11542473 0.15146302 0.006493334 -0.16624652 -0.087957
0.18826921 -0.19992828 0.064051956 -0.011351698 -0.11406022 0.10264851 0.004191859 0.09358488
0.07037269 -0.16115291 0.17485587 -0.18993615 -0.18068185 -0.16987303 -0.27156362 -0.044143893
-0.22456981 -0.18725178 -0.0002693964 0.015808616 -0.045810513 0.22770648 0.19853465 -0.25977322
0.16120908 -0.09050667 0.04307793 0.063796505 -0.073210955 0.07748783 0.07800772 0.09964615
0.19468272 0.17808351 -0.100894764 0.17414467 -0.018011417 -0.042924415 -0.08896653 0.3175842
0.061023977 -0.04947109 0.00037928668 0.13698198 -0.13504912 -0.111582726 0.08401573 -0.1355566
0.10409472 0.13625894 0.3039136 -0.030540016 0.009741428 0.13926187 0.18625283 -0.07884582
-0.035047017 0.08260313 -0.20228997 -0.2733615 0.035548154 0.024236726 0.20055002 -0.059679367
0.09909764 -0.19109155 0.15882955 -0.032033928 -0.1456584 0.18540092 -0.06726363 0.1111818
-0.0062157265 -0.005549016 0.21188495 -0.11971645 0.041508425 0.18940191 0.041798707 -0.09386608
-0.19192214 -0.08629573 -0.17047164 -0.13227114 -0.06999522 0.1338026 -0.07489376 -0.16700788
-0.16456687 0.0014770174 -0.047385566 0.06945439

linear1.bias f4 [10]
00000000: 8726 3fbd 67e9 0dbe 6d01 0c3d 73ba 15bb
00000010: acda 343e 20d0 83bc bbe3 46be c68c 533e
00000020: d6c0 78be 7ff8 fd3d
-0.046667602 -0.13858567 0.034181047 -0.0022846728 0.17661542 -0.016090453 -0.1942281 0.2065917
-0.24292311 0.124009125

linear2.weight f4 [4, 10]
00000000: 900a a93e 917a 86be 9a58 1ebe 8456 8d3d
00000010: 331d 5d3e d1ba 2ebe 9469 8e3e cb68 a43e
00000020: fdd8 56be a677 d23d 7343 b23e fd77 95be
00000030: 5880 d23d fa91 a2be 463d 55be 8064 83be
00000040: 3274 cfbd 41c2 933e 701f 5cbe 8fe7 85be
00000050: 2c6f 823e 93d6 2fbe 1f6a 98be 263c 10be
00000060: d514 0d3d da3c 19be b52c 5e3e b735 c7bd
00000070: b38c 233e b357 15bd 8f6b f03c 9fdb 87bd
00000080: 5d4f 80be 92d6 613e 479c 913e d687 19be
00000090: b18f b23e 2ec9 8f3e 2f83 623e 499a 3bbe
0.3301587 -0.26265386 -0.15463486 0.06901267 0.2159317 -0.17063452 0.27814925 0.321112
-0.20981212 0.102767274 0.34817085 -0.29193106 0.10278386 -0.31751996 -0.20824155 -0.25662613
-0.10129584 0.2885914 -0.21496367 -0.26153228 0.25475442 -0.17171697 -0.29768464 -0.14085445
0.034443695 -0.1496462 0.21696742 -0.09727042 0.15971641 -0.03646059 0.029348163 -0.06633686
-0.2506055 0.22054508 0.28439543 -0.14993224 0.34875253 0.28083175 0.22120355 -0.18320574

linear2.bias f4 [4]
00000000: 0d31 813e 391f 29be 76b1 91be b1b4 083e
0.25232735 -0.16515817 -0.28455704 0.13350178
